Pytorch/cifar_net.pth (torch, 251732 bytes, 10 tensors)

conv1.weight f4 [6, 3, 5, 5]
0.24848136 0.034787755 -0.1405551 -0.20177063 0.041233197 0.23937067 -0.07227462 -0.3671185
-0.1296677 -0.17042151 -0.1369148 -0.16920625 -0.22663346 -0.132189 -0.040997017 -0.06711272
-0.08718762 0.17485857 0.032268792 -0.058480944 0.08566297 0.21414196 0.22821501 0.04768454
-0.027050147 0.064438574 -0.106038086 -0.3298445 -0.31744483 -0.13050349 0.00013684847 -0.19925477
-0.29417756 -0.35178673 -0.01906603 -0.1810176 -0.2375846 -0.07633027 0.0006020701 -0.012425032
-0.12711246 0.129854 0.15081531 0.15926039 -0.06402808 -0.050216567 0.29044244 0.084305614
0.11354704 0.108934395 0.34390658 0.052247345 -0.115608156 -0.040308744 -0.002017804 0.17513703
-0.13156332 -0.16224898 -0.18227233 0.056737356 -0.0037990913 -0.24347349 -0.117421255 -0.025371289
0.050923 -0.096510686 0.17853062 0.2965142 0.10555449 0.010931284 0.13680193 0.13755606
0.26789147 0.14954746 0.022996984 -0.09460935 -0.1433402 -0.07785373 -0.11398286 -0.14381686
-0.031702653 0.002480975 -0.084907934 0.09205097 -0.0048100217 0.08219853 0.020480137 0.018563164
0.1777487 0.08680504 0.05110097 0.08597172 0.10284719 -0.015209675 0.08415935 0.120037965
0.17364228 0.101080164 0.1265438 0.17787707 -0.17326678 -0.13794912 -0.08609307 -0.07773839
-0.005844153 -0.07565118 0.035171166 0.08710466 0.08154461 -0.02214622 -0.13697481 -0.056874532
0.10163889 -0.053426523 -0.01794409 0.017927984 -0.094761305 0.028587442 0.08928848 -0.10598045
-0.11180697 -0.043950364 -0.02436095 -0.009674112 -0.17691748 -0.0034907262 0.0028562683 0.17235748
0.27566168 0.082718424 0.03884121 0.100904256 0.24541083 0.2387131 0.13343377 -0.021921346
0.029715259 0.22756897 0.28304958 0.13658755 -0.057975367 0.119324796 0.14504106 0.15013295
0.0018648304 0.029850729 -0.07298205 -0.02313075 0.02762578 -0.10292123 -0.2305978 -0.18023631
-0.08648092 0.05399847 0.020582588 -0.34435523 -0.15577967 -0.05325474 -0.19652475 -0.14595313
-0.32525957 -0.2565832 -0.23791753 -0.08354253 -0.100740395 -0.13110176 -0.3223861 -0.14968868
-0.08596811 -0.24410789 -0.302193 -0.30655983 -0.17688905 -0.2217918 -0.20717636 0.014995458
0.09841784 0.07659159 0.063729644 0.121633485 0.07084502 0.09547588 -0.043057546 0.14009541
-0.04012222 -0.07962032 -0.023341859 0.021163292 0.11918069 0.03403026 0.05092992 0.15126988
-0.085748576 0.058286987 -0.08577941 -0.07410816 0.0131977545 -0.12996085 -0.05640711 -0.0031326998
0.16616325 0.2116532 0.23583852 0.24508455 0.07747368 0.21454406 0.14126357 0.1195785
0.1601034 0.00124912 0.20421255 0.1578578 0.19781086 0.06872563 0.17501858 0.19369034
0.2800266 0.13688688 0.061837155 0.04514426 0.18627803 0.22352873 0.05332174 0.20267855
0.1439174 -0.19853546 -0.5260319 -0.5881957 -0.35038465 -0.12686267 -0.1539999 -0.18436512
0.025070116 -0.14114524 -0.109662354 0.38125354 0.44245222 0.47756317 0.4619471 0.1646951
0.15716745 -0.011655541 -0.024814526 -0.023630686 -0.017863505 -0.12763652 -0.033147883 -0.28209293
-0.14472689 0.08041088 0.011327482 -0.072137065 -0.20763499 -0.1119837 0.2073678 0.23333545
00000000: e671 7e3e 9b7d 0e3d aded 0fbe f69c 4ebe
00000010: 24e4 283d 961d 753e b704 94bd f5f6 bbbe
00000020: 9cc7 04be fa82 2ebe 6533 0cbe 6744 2dbe
00000030: 9a12 68be 8e5c 07be 7dec 27bd 6572 89bd
00000040: 6c8f b2bd 200e 333e 482c 043d b789 6fbd
00000050: 1170 af3d 0848 5b3e 32b1 693e dd50 433d
00000060: 4598 ddbc 5ff8 833d 7f2a d9bd 61e1 a8be
00000070: 2188 a2be b5a2 05be fb7e 0f39 7109 4cbe
00000080: 719e 96be 641d b4be 5d30 9cbc ae5c 39be
00000090: 6149 73be 0b53 9cbd 3ed4 1d3a 5d92 4bbc
000000a0: c529 02be 72f8 043e 546f 1a3e 2815 233e
000000b0: 2721 83bd e3af 4dbd dfb4 943e 6ca8 ac3d
000000c0: 5a8b e83d ff18 df3d 8614 b03e 5001 563d
000000d0: f8c3 ecbd c81a 25bd 223d 04bb 1f57 333e
000000e0: 89b8 06be 9924 26be 99a5 3abe 6e65 683d
000000f0: 2dfa 78bb 1d51 79be 8e7a f0bd 73d7 cfbc
00000100: a394 503d 65a7 c5bd bbd0 363e b6d0 973e
00000110: f42c d83d 2119 333c ce15 0c3e 7fdb 0c3e
00000120: 1229 893e f822 193e 2c64 bc3c 8cc2 c1bd
00000130: c6c7 12be c771 9fbd d96f e9bd ba44 13be
00000140: a4da 01bd da97 223b 36e4 adbd 3885 bc3d
00000150: 639d 9dbb b457 a83d f6c5 a73c c711 983c
00000160: c103 363e d7c6 b13d 404f 513d f111 b03d
00000170: 8ca1 d23d 0032 79bc bd5b ac3d 77d6 f53d
00000180: 48cf 313e 1e03 cf3d b394 013e 6825 363e
00000190: d96c 31be 8942 0dbe 9051 b0bd 4e35 9fbd
000001a0: 4f80 bfbb 02ef 9abd a40f 103d ee63 b23d
000001b0: dc00 a73d fd6b b5bc 2043 0cbe 45f5 68bd
000001c0: 0d28 d03d c5d5 5abd 7cff 92bc b5dd 923c
000001d0: 3712 c2bd 3630 ea3c e1dc b63d 470c d9bd
000001e0: 0dfb e4bd 4c05 34bd 9d90 c7bc 2b80 1ebc
000001f0: db29 35be abc4 64bb 3b30 3b3b 7b7e 303e
00000200: 8723 8d3e 4768 a93d f617 1f3d e4a6 ce3d
00000210: fa4c 7b3e 3571 743e dda2 083e 6594 b3bc
00000220: 6a6d f33c d707 693e e0eb 903e 9bdd 0b3e
00000230: 9477 6dbd 8f60 f43d a585 143e 74bc 193e
00000240: 536d f43a 8489 f43c 9d77 95bd b37c bdbc
00000250: 764f e23c 5ec8 d2bd d421 6cbe de8f 38be
00000260: e91c b1bd 802d 5d3d d19c a83c 544f b0be
00000270: b584 1fbe a421 5abd c93d 49be bd74 15be
00000280: 6c88 a6be e05e 83be a7a0 73be 5918 abbd
00000290: fb50 cebd 8a3f 06be ca0f a5be fd47 19be
000002a0: 0c10 b0bd 6bf7 79be 0ab9 9abe 69f5 9cbe
000002b0: 6722 35be 641d 63be 0a26 54be 82af 753c
000002c0: 4b8f c93d 0ddc 9c3d b084 823d fa1a f93d
000002d0: 3217 913d dc88 c33d 1c5d 30bd 2c75 0f3e
000002e0: 3257 24bd fa0f a3bd 6d37 bfbc a45e ad3c
000002f0: 0115 f43d 5063 0b3d e49b 503d 7ee6 1a3e
00000300: f39c afbd 56be 6e3d 1ead afbd 05c6 97bd
00000310: 653b 583c 7514 05be 240b 67bd fb4d 4dbb
00000320: b326 2a3e 9ebb 583e a77f 713e 72f7 7a3e
00000330: 85aa 9e3d 70b1 5b3e 66a7 103e 93e5 f43d
00000340: 25f2 233e 83b9 a33a 181d 513e 7aa5 213e
00000350: ee8e 4a3e 06c0 8c3d 1238 333e c356 463e
00000360: a65f 8f3e 132c 0c3e f548 7d3d 30e9 383d
00000370: abbf 3e3e b7e4 643e e667 5a3d f78a 4f3e
00000380: 155f 133e e14c 4bbe 07aa 06bf fe93 16bf
00000390: 9e65 b3be 4ae8 01be 26b2 1dbe 36ca 3cbe
000003a0: d85f cd3c 6188 10be a896 e0bd aa33 c33e
000003b0: 1989 e23e 2983 f43e 5584 ec3e d5a5 283e
000003c0: 81f0 203e e2f6 3ebc d547 cbbc 2495 c1bc
000003d0: 7c56 92bc 26b3 02be 13c6 07bd 7c6e 90be
000003e0: 4933 14be 76ae a43d e796 393c 99bc 93bd
000003f0: 449e 54be b657 e5bd 3958 543e 7def 6e3e

conv1.bias f4 [6]
-0.47126648 0.093342885 0.48992229 -0.3211323 0.1253185 -0.39210805
00000000: d749 f1be 8e2a bf3d 18d7 fa3e 746b a4be
00000010: 7e53 003e 63c2 c8be

conv2.weight f4 [16, 6, 5, 5]
-0.14410406 -0.07436141 -0.028000748 -0.049666483 0.013266773 -0.15216517 -0.020022983 -0.09259719
-0.053909972 -0.05009325 -0.080559306 -0.05086407 -0.08736458 0.032254167 0.00701774 -0.023172181
0.018156812 0.0051115584 -0.003517983 -0.03221964 0.029035434 -0.06159342 0.009459052 0.0065378826
0.008948232 0.18968678 0.13053595 0.03215837 0.1080567 0.052700065 0.112968884 0.100684874
0.12215052 0.006414174 0.030070001 0.15008782 0.043545548 -0.020222409 0.022866482 -0.041311715
0.08595833 0.122907944 0.099927485 0.011006583 0.04126532 0.11993848 0.057693373 0.12055178
0.06083545 0.09729235 0.022162268 0.10101298 -0.013404604 0.06752026 0.0503584 0.06851359
-0.06405846 -0.007000984 0.0664157 -0.06292119 -0.042038437 0.045455825 -0.03898145 -0.08438982
-0.019959109 0.03021476 0.014561549 -0.03161858 -0.06301043 0.08856719 -0.0036390696 0.053412385
0.09925719 0.12800395 0.07181682 -0.22279917 -0.13412087 -0.030084895 -0.019326573 -0.059221014
-0.15363373 -0.098695755 -0.10839008 -0.04770572 -0.016034512 -0.16248332 -0.031008162 -0.10188901
-0.060119316 -0.07251037 -0.13885112 -0.22783099 -0.22306965 -0.11823775 -0.08944056 -0.065454505
-0.15417588 -0.08672061 -0.0019799804 -0.062885076 -0.16331577 -0.17233427 -0.13634174 -0.13074522
-0.048712723 -0.17895414 -0.026768852 -0.027631924 -0.05995636 -0.08981204 -0.10118379 -0.0940235
-0.04823259 -0.0544679 -0.023306755 -0.11845432 -0.065530986 0.044934724 0.0928769 -0.021451388
-0.07639002 -0.044238344 0.20165445 0.11858868 0.095522724 -0.019091949 -0.10633385 -0.15449025
-0.09592862 -0.054734994 -0.054172516 -0.12320084 -0.05006336 -0.057864275 -0.045974012 -0.05766765
-0.072260424 -0.10806755 -0.023005178 -0.08482983 -0.04525404 -0.04128531 -0.11617623 -0.11131232
-0.090346746 0.04973005 -0.018631373 0.04187521 -0.0621573 -0.046008468 -0.12962924 -0.035981722
-0.044086073 -0.025166769 -0.08085807 -0.10468809 -0.10596545 -0.17503177 -0.039812036 -0.089536
-0.0043173265 -0.12150106 -0.19098644 -0.19171624 -0.118383884 0.004028787 -0.09115802 -0.16348583
-0.119956985 -0.09630398 -0.10427283 -0.12361686 -0.076589145 -0.034422282 -0.12781036 -0.0675975
-0.083272174 -0.018180514 0.057421777 0.0135335475 0.015298213 0.0041085086 0.050372563 -0.002527068
0.08186466 -0.042370997 -0.07486584 -0.049637858 0.053198703 0.0778522 0.087170586 0.053630695
0.04371707 0.09331696 -0.06201942 -0.09014135 0.0008852207 -0.031102983 0.041290153 0.05275351
-0.16791013 -0.1324272 -0.12038271 0.0683704 0.23979412 -0.17138436 -0.09019545 -0.069354266
0.094187 0.2602904 -0.14228159 -0.21012183 -0.1194384 0.1505447 0.20635064 -0.06192235
-0.19955987 -0.04037006 -0.028589398 0.18665624 -0.05495615 -0.12772822 -0.072634615 0.06679735
0.11980242 -0.042983532 -0.11922262 -0.016851624 -0.00030937674 -0.015643477 -0.023848442 -0.16026886
-0.07745742 -0.11589992 0.0061813197 -0.16883007 -0.09448855 -0.09609663 -0.058149107 0.015963534
-0.064101085 -0.10066787 -0.1493837 -0.13833034 -0.079805166 0.03842016 -0.07661858 -0.07772616
-0.14492413 -0.09168502 -0.010712151 0.086980574 0.07400524 -0.027872799 -0.19974835 0.13902408
00000000: 0490 13be cc4a 98bd d361 e5bc 156f 4bbd
00000010: e15c 593c 30d1 1bbe 3d07 a4bc 98a3 bdbd
00000020: b4d0 5cbd 942e 4dbd 47fc a4bd d856 50bd
00000030: 33ec b2bd f21c 043d 12f5 e53b 96d3 bdbc
00000040: 98bd 943c dc7e a73b f68d 66bb bef8 03bd
00000050: b8db ed3c 6249 7cbd 24fa 1a3c bc3b d63b
00000060: 9b9b 123c 403d 423e 37ab 053e 7fb8 033d
00000070: d54c dd3d 06dc 573d 3b5c e73d df33 ce3d
00000080: 0d2a fa3d fe2d d23b 5d55 f63c 9fb0 193e
00000090: d15c 323d 77a9 a5bc 7d52 bb3c 7936 29bd
000000a0: ec0a b03d 29b7 fb3d c8a6 cc3d f554 343c
000000b0: d305 293d 4ea2 f53d e34f 6c3d dae3 f63d
000000c0: 982e 793d 3641 c73d a58d b53c e5df ce3d
000000d0: fc9e 5bbc 1048 8a3d 9c44 4e3d da50 8c3d
000000e0: 1531 83bd 8368 e5bb f404 883d d3dc 80bd
000000f0: 7f30 2cbd e32f 3a3d 03ab 1fbd 92d4 acbd
00000100: 4981 a3bc f284 f73c 9093 6e3c 7c82 01bd
00000110: 9d0b 81bd b762 b53d 757d 6ebb f2c6 5a3d
00000120: 5b47 cb3d 7813 033e b214 933d 7725 64be
00000130: fb56 09be 9974 f6bc c352 9ebc bc91 72bd
00000140: 2952 1dbe 0021 cabd 9efb ddbd 1367 43bd
00000150: cf5a 83bc 0762 26be d404 febc 2fab d0bd
00000160: ac3f 76bd 5180 94bd fd2e 0ebe 874c 69be
00000170: 5f6c 64be a226 f2bd 9d2c b7bd 030d 86bd
00000180: 48e0 1dbe 939a b1bd 8fc2 01bb e4c9 80bd
00000190: 403c 27be 6578 30be 2b9d 0bbe 13e2 05be
000001a0: fe86 47bd c13f 37be 5a4a dbbc 585c e2bc
000001b0: cd94 75bd 60ef b7bd 7239 cfbd 658f c0bd
000001c0: 898f 45bd bc19 5fbd cfed bebc 2e98 f2bd
000001d0: 1c35 86bd 790d 383d 3f36 be3d d2ba afbc
000001e0: 5f72 9cbd 4433 35bd 817e 4e3e 9fde f23d
000001f0: 6ba1 c33d b866 9cbc 90c5 d9bd b132 1ebe
00000200: 3976 c4bd cd31 60bd 00e4 5dbd b950 fcbd
00000210: 3d0f 4dbd 1703 6dbd 3f4f 3cbd ea34 6cbd
00000220: 46fd 93bd 8552 ddbd 5b75 bcbc 43bb adbd
00000230: 4d5c 39bd c91a 29bd ceed edbd b7f7 e3bd
00000240: b707 b9bd bdb1 4b3d d2a0 98bc 5785 2b3d
00000250: a798 7ebd 6073 3cbd 87bd 04be 9261 13bd
00000260: 9993 34bd 8a2a cebc ea98 a5bd b666 d6bd
00000270: 6a04 d9bd 873b 33be f211 23bd a65e b7bd
00000280: 5c78 8dbb 8cd5 f8bd f391 43be 4351 44be
00000290: 4073 f2bd ea03 843b 0eb1 babd d468 27be
000002a0: 02ac f5bd 053b c5bd fe8c d5bd d62a fdbd
000002b0: c5da 9cbd 61fe 0cbd b8e0 02be 8f70 8abd
000002c0: 9a8a aabd 4def 94bc 1933 6b3d d0bb 5d3c
000002d0: 5ba5 7a3c aba0 863b 7653 4e3d 2a9d 25bb
000002e0: a9a8 a73d 368d 2dbd 4353 99bd 1151 4bbd
000002f0: e2e6 593d f970 9f3d 7e86 b23d dcab 5b3d
00000300: ac10 333d f61c bf3d 1308 7ebd 079c b8bd
00000310: 280e 683a afcb febc dd1f 293d 1114 583d
00000320: a2f0 2bbe ff9a 07be 368b f6bd c805 8c3d
00000330: 978c 753e 627f 2fbe 64b8 b8bd 9c09 8ebd
00000340: 1de5 c03d c944 853e 44b2 11be 2d2a 57be
00000350: 1f9c f4bd 6428 1a3e 954d 533e 4aa2 7dbd
00000360: 6c59 4cbe 135b 25bd 5034 eabc d022 3f3e
00000370: b319 61bd 30cb 02be 75c1 94bd 0dcd 883d
00000380: f95a f53d 800f 30bd fd2a f4bd 6b0c 8abc
00000390: d833 a2b9 c026 80bc cf5d c3bc 851d 24be
000003a0: ffa1 9ebd f05c edbd ab8c ca3b cae1 2cbe
000003b0: 3783 c1bd 4fce c4bd c22d 6ebd f5c5 823c
000003c0: 6e47 83bd f52a cebd 0af8 18be 78a6 0dbe
000003d0: e470 a3bd 755e 1d3d 34ea 9cbd e52e 9fbd
000003e0: fe66 14be 5bc5 bbbd 0582 2fbc df22 b23d
000003f0: 0f90 973d 7f55 e4bc d58a 4cbe 545c 0e3e

conv2.bias f4 [16]
0.53821486 0.43248883 -0.31691885 0.06939361 0.44430995 -0.22071892 0.059563953 -0.30779827
-0.3282719 -0.40985742 0.46990708 -0.2371066 0.73021 -0.46479312 0.04611121 -0.16204718
00000000: 73c8 093f 2d6f dd3e 3043 a2be 3d1e 8e3d
00000010: 987c e33e 2404 62be 55f9 733d bc97 9dbe
00000020: 4113 a8be d5d8 d1be a997 f03e 13cc 72be
00000030: 0bef 3a3f 5df9 edbe 1cdf 3c3d b2ef 25be

fc1.weight f4 [120, 400]
-0.012161528 -0.03998333 -0.009142648 0.020769566 0.023999002 -0.03428829 -0.02995244 0.020353382
0.03755342 -0.023219634 -0.03035868 0.014577674 0.026790075 0.047506057 0.0078601055 0.009259302
-0.033698328 -0.043694604 0.023145666 0.03692255 0.015516274 -0.0017738538 0.0432229 -0.025802437
-0.031075379 -0.020784471 0.022880372 0.03519096 0.003011931 -0.03989005 -0.028122552 0.038743336
0.00012554681 0.026438236 -0.043323327 -0.023704046 -0.033723798 0.021974746 -0.031193344 -0.012080452
-0.042772368 0.01418228 -0.0045283367 0.038204864 0.026329665 -0.038168438 0.0085104965 0.0070110923
0.027564248 -0.020803608 0.028905755 -0.038152512 -0.008935699 -0.00403856 0.021586353 -0.044037495
0.002003443 -0.0055828816 -0.021612208 0.037527744 -0.044365913 -0.018842418 0.04617833 -0.039907657
0.04264317 0.037671864 -0.049364585 -0.0028489237 -0.006720473 -0.02183715 -0.012247736 0.037709348
-0.025635501 -0.0025454997 -0.04088725 0.04363871 0.040858652 -0.024472957 0.030970853 0.014130185
-0.051245376 -0.022025565 -0.026392942 -0.010018724 0.047346167 0.0038152514 -0.03452059 -0.03682217
-0.033853184 0.047344718 0.032441728 -0.016801646 -0.016091885 -0.03802737 0.015468197 -0.0065727234
-0.008317668 -0.049663126 -0.03768243 0.021080164 -0.023814367 -0.006745748 0.0062407446 -0.011469191
0.027170481 -0.046534307 -0.035075113 0.024631957 0.039081153 0.02216661 -0.038132533 -0.016101658
0.020733498 -0.03804584 0.045359287 -0.005859498 -0.025289694 0.026878238 -0.0013911454 -0.022731341
-0.023929358 0.012858423 0.009383446 -0.020212306 0.042474106 0.0024125148 -0.0036772587 0.033511147
-0.018101007 -0.021014646 0.0036853864 -0.044284046 -0.045348603 -0.01896677 0.013733442 -0.031955224
-0.009708374 -0.040787738 -0.039728288 0.0014783418 0.031815678 -0.043459363 0.003546423 -0.048563708
0.048426244 0.036605462 -0.02978454 -0.032722246 -0.049858358 -0.03238113 -0.02641342 0.009169064
-0.011695711 -0.0057029068 0.012259836 0.047494773 -0.03147174 0.011668408 -0.03547587 -0.0009809977
0.027119266 0.0008207345 0.03819662 0.026852552 -0.0062796315 0.011973747 0.009958303 0.0070262384
0.047974754 -0.019574348 0.00505849 -0.032261353 -0.038282372 0.018481035 0.037788983 0.042621955
-0.03280385 -0.025603402 -0.040579062 -0.024951838 0.0378101 0.026485283 -0.011127193 0.008252811
-0.049757164 -0.036035553 0.006813248 -0.019875186 0.011193709 -0.033958156 0.024598643 -0.03558456
-0.032308236 0.016567169 0.0064831595 -0.03844591 0.023828244 0.041176528 -0.0127416765 0.012867738
-0.013719249 -0.028566206 0.010534883 0.042004175 -0.035737395 0.008505086 -0.050454304 -0.00037943808
-0.036483448 0.02593502 0.032690324 -0.023672227 0.04330569 -0.044790506 -0.0043436405 0.04394179
0.04547966 0.027036838 -0.03356411 -0.026159368 0.031985603 0.029143566 0.04124181 -0.030790241
-0.01919199 0.0118020065 -0.00071015843 -0.006472098 -0.047899187 0.03315733 -0.051712323 0.015645191
-0.00097652426 -0.008427667 -0.03794579 -0.046095166 -0.018660013 -0.019720431 -0.05008834 -0.026119221
0.0067844256 -0.021481883 0.024591891 0.046586208 0.039751064 -0.0038227797 0.023857294 0.02546188
0.011647137 -0.035776325 -0.02828611 0.025589148 -0.010374707 -0.00559583 0.0030392965 0.038263362
00000000: 2541 47bc 8fc5 23bd 0ccb 15bc f024 aa3c
00000010: 8e99 c43c e171 0cbd d25e f5bc 23bc a63c
00000020: 9dd1 193d 1a37 bebc c4b2 f8bc 32d7 6e3c
00000030: dc76 db3c b695 423d acc7 003c 54b4 173c
00000040: 4207 0abd 1df9 32bd fb9b bd3c 1a3c 173d
00000050: f837 7e3c a880 e8ba 7f0a 313d a25f d3bc
00000060: cb91 febc 3244 aabc 9e6f bb3c 6524 103d
00000070: d163 453b c063 23bd 4461 e6bc 55b1 1e3d
00000080: 37a5 0339 0095 d83c cd73 31bd fd2e c2bc
00000090: f721 0abd 6204 b43c 2f89 ffbc 17ed 45bc
000000a0: 1432 2fbd cb5c 683c 7162 94bb b47c 1c3d
000000b0: 4fb1 d73c 8256 1cbd 9c6f 0b3c 4ebd e53b
000000c0: 6bce e13c 546c aabc c3cb ec3c cf45 1cbd
000000d0: 0a67 12bc e655 84bb ddd5 b03c a960 34bd
000000e0: 324c 033b 9bf0 b6bb 160c b1bc b1b6 193d
000000f0: 08b9 35bd 6a5b 9abc 7d25 3d3d 3676 23bd
00000100: 9baa 2e3d d04d 1a3d 8532 4abd 02b5 3abb
00000110: 6a37 dcbb d3e3 b2bc baaa 48bc 1e75 1a3d
00000120: 8b01 d2bc 66d2 26bb 6479 27bd 81be 323d
00000130: 675b 273d 837b c8bc 96b6 fd3c 4b82 673c
00000140: ace6 51bd f56e b4bc 0336 d8bc 9325 24bc
00000150: 0eee 413d 4c09 7a3b 7665 0dbd d8d2 16bd
00000160: a3a9 0abd 89ec 413d 9ee1 043d 9ba3 89bc
00000170: 21d3 83bc 96c2 1bbd 526e 7d3c 0060 d7bb
00000180: d446 08bc 906b 4bbd e458 1abd 4fb0 ac3c
00000190: 5916 c3bc 700b ddbb 297f cc3b 46e9 3bbc
000001a0: a194 de3c c29a 3ebd ecaa 0fbd f5c8 c93c
000001b0: 8f13 203d c096 b53c dc30 1cbd a0e7 83bc
000001c0: 4cd9 a93c f4d5 1bbd a9ca 393d 0801 c0bb
000001d0: 552c cfbc c02f dc3c 1857 b6ba 1437 babc
000001e0: 8007 c4bc 23ac 523c 06bd 193c 4794 a5bc
000001f0: 54f9 2d3d 481b 1e3b 2afe 70bb fc42 093d
00000200: 9048 94bc e826 acbc 8686 713b 3063 35bd
00000210: 75bf 39bd 3360 9bbc 3b02 613c 7be3 02bd
00000220: df0f 1fbc 0b11 27bd 21ba 22bd ebc4 c13a
00000230: 2851 023d 7202 32bd 1b6b 683b bdea 46bd
00000240: 995a 463d 9cef 153d b5fe f3bc c307 06bd
00000250: 4738 4cbd 13a2 04bd f560 d8bc d839 163c
00000260: 5e9f 3fbc 73df babb 7bdd 483c e189 423d
00000270: 83e8 00bd da2c 3f3c 254f 11bd d294 80ba
00000280: 3929 de3c 8f26 573a 0f74 1c3d e2f9 db3c
00000290: 5ec5 cdbb 892d 443c 2628 233c 5c3c e63b
000002a0: 2d81 443d 625a a0bc b1c1 a53b 7b24 04bd
000002b0: facd 1cbd 8a65 973c 9fc8 1a3d 5c94 2e3d
000002c0: 545d 06bd 3abe d1bc 3b36 26bd cc67 ccbc
000002d0: c3de 1a3d aaf7 d83c d54e 36bc cc36 073c
000002e0: 2bce 4bbd 049a 13bd ab41 df3b 49d1 a2bc
000002f0: d265 373c b517 0bbd 1883 c93c 1ec1 11bd
00000300: a455 04bd dfb7 873c af70 d43b 7579 1dbd
00000310: 7333 c33c b8a8 283d 77c2 50bc 34d3 523c
00000320: b3c6 60bc ad03 eabc 809a 2c3c 920c 2c3d
00000330: 6061 12bd eb58 0b3c 2ca9 4ebd 51ef c6b9
00000340: ab6f 15bd ae75 d43c 4ae6 053d 42ec c1bc
00000350: 4f61 313d 4076 37bd 1955 8ebb 4efc 333d
00000360: e148 3a3d 5c7c dd3c 857a 09bd 2c4c d6bc
00000370: 5603 033d 7dbe ee3c 2ced 283d d13b fcbc
00000380: 8538 9dbc 345d 413c ed29 3aba e513 d4bb
00000390: f031 44bd fbcf 073d 4dd0 53bd 582a 803c
000003a0: 6ffd 7fba 3314 0abc 0b6d 1bbd 49ce 3cbd
000003b0: e2dc 98bc be8c a1bc 6e29 4dbd faf7 d5bc
000003c0: e34f de3b c6fa afbc ef74 c93c 2ed1 3e3d
000003d0: 03d2 223d 9a87 7abb 5f70 c33c 6f95 d03c
000003e0: a2d3 3e3c 328a 12bd 46b8 e7bc 55a0 d13c
000003f0: adfa 29bc 395d b7bb ef2e 473b 0bba 1c3d

fc1.bias f4 [120]
0.033183742 0.119200125 -0.015798185 0.17131568 -0.12857275 0.00741771 0.035141267 0.01106836
-0.004882798 0.012646032 -0.017886419 0.0064449 0.06094688 -0.045858953 0.075835444 0.017859286
0.11401157 -0.08393498 -0.0512032 -0.12738408 -0.031622827 0.027861657 0.07670315 -0.048814777
-0.016897118 0.11595929 -0.023615897 -0.012362028 0.043987975 0.07200447 0.00013987988 -0.072637044
-0.05132614 -0.11260097 0.016530968 -0.027584447 0.02578972 0.081953794 0.19331604 0.036157385
0.13444391 0.10458607 -0.11520888 -0.048525795 0.14260615 0.107552886 0.12237293 0.044135723
-0.03280308 0.061668202 -0.024877902 0.090126164 -0.0404555 0.008545719 0.027563093 -0.006787654
-0.009679714 -0.031890053 -0.0254412 0.19286029 0.03493213 -0.027308827 -0.019139526 -0.013322201
0.017494872 -0.024969162 -0.07219342 -0.039012484 0.039727323 0.08192403 -0.03502663 -0.0027870273
-0.07551936 0.21133079 0.09018654 0.0902102 0.033951517 0.04516286 -6.7769164e-05 -0.11227892
-0.045808762 -0.065979704 -0.014850738 0.13751926 -0.021736633 -0.019936997 -0.06183809 0.11533587
0.18646614 0.1305975 -0.06828879 0.027047632 0.030893756 0.07670381 0.050505087 0.23711815
0.10247641 -0.017618848 0.028908506 -0.074105 -0.03518589 -0.08367142 0.099688426 -0.10434911
-0.036901593 0.08766703 -0.008347411 -0.02390806 0.109551005 0.11818188 0.06077844 0.055368245
-0.04546744 -0.028946038 0.075707644 -0.00726529 0.1125056 0.16063099 0.0014592396 -0.05135585
00000000: adeb 073d 321f f43d 326b 81bc 616d 2f3e
00000010: 93a8 03be 4310 f33b 4af0 0f3d 1158 353c
00000020: e1ff 9fbb 4d31 4f3c 8a86 92bc bd2f d33b
00000030: 70a3 793d 99d6 3bbd 9d4f 9b3d a34d 923c
00000040: e67e e93d 1ae6 abbd 72ba 51bd f970 02be
00000050: f086 01bd 213e e43c 8b16 9d3d 01f2 47bd
00000060: d36b 8abc 107c ed3d 2076 c1bc 1a8a 4abc
00000070: bc2c 343d 1477 933d b8ac 1239 bbc2 94bd
00000080: 5c3b 52bd 569b e6bd f46b 873c c7f8 e1bc
00000090: f644 d33c 64d7 a73d a4f4 453e c419 143d
000000a0: aaab 093e 3931 d63d a2f2 ebbd fcc2 46bd
000000b0: 5907 123e b044 dc3d a99e fa3d a9c7 343d
000000c0: 865c 06bd cc97 7c3d becc cbbc 1194 b83d
000000d0: abb4 25bd 5803 0c3c ffcb e13c f86a debb
000000e0: aa97 1ebc 259f 02bd 106a d0bc 2b7d 453e
000000f0: fe14 0f3d c3b6 dfbc 7fca 9cbc 5c45 5abc
00000100: 6851 8f3c 218c ccbc 25da 93bd 8ecb 1fbd
00000110: 1eb9 223d c9c7 a73d 1578 0fbd 8fa6 36bb
00000120: e5a9 9abd 1967 583e b8b3 b83d 20c0 b83d
00000130: bf10 0b3d b1fc 383d 4b1f 8eb8 7ef2 e5bd
00000140: f8a1 3bbd 5e20 87bd 8350 73bc d9d1 0c3e
00000150: 0611 b2bc ea52 a3bc f049 7dbd 3635 ec3d
00000160: fbf0 3e3e 5abb 053e feda 8bbd ff92 dd3c
00000170: e714 fd3c e316 9d3d 6cde 4e3d 1acf 723e
00000180: 27df d13d 6755 90bc 88d1 ec3c 5dc4 97bd
00000190: 141f 10bd ec5b abbd 7229 cc3d fcb4 d5bd
000001a0: 2026 17bd c68a b33d 94c3 08bc d6da c3bc
000001b0: 475c e03d 5709 f23d d0f2 783d d0c9 623d
000001c0: 113c 3abd 3e20 edbc 9c0c 9b3d ab11 eebb
000001d0: 5669 e63d 737c 243e f543 bf3a 835a 52bd

fc2.weight f4 [84, 120]
-0.011375936 -0.03538689 -0.009862005 0.12919518 0.03919005 0.10161914 -0.111017376 0.08745913
0.053356126 0.112625346 -0.04544073 0.06813818 0.083921805 -0.059021477 0.08436932 0.08890968
-0.07942207 -0.10506986 0.019166082 -0.106848314 -0.022110382 0.15249152 0.055886466 0.011309632
-0.11302235 -0.015577226 0.06821998 -0.049157202 -0.08341403 0.063885875 -0.055723608 -0.11242844
0.018931657 0.005976532 0.05293934 -0.06176237 -0.038957734 0.006130747 -0.15734221 0.054165248
-0.08622964 -0.057741333 0.10247931 0.007411282 -0.012776657 0.06942834 0.014048093 -0.03731071
-0.14929546 -0.039920937 0.023196101 0.004012452 0.03880105 0.062984645 0.042242583 -0.1484096
0.14326431 -0.05144615 -0.016377117 -0.15641065 0.01080562 0.07704045 -0.074173905 -0.040567365
0.02439364 0.015318079 0.04760627 -0.08356333 0.21570046 -0.06263836 -0.027536068 0.06869448
-0.12763946 0.037675254 0.071695335 0.07141973 0.08744245 0.047706157 0.13315901 0.07441118
-0.03660604 0.08258184 0.028462734 0.015529976 -0.03656486 0.03321356 0.081589706 0.0765252
-0.009867305 0.017963376 0.05394939 0.05920799 0.02648327 -0.058874916 -0.052831523 -0.085685425
-0.0848412 0.06629479 0.043786153 0.15795575 -0.009287254 -0.011161594 -0.12240963 -0.00011167868
0.052356422 -0.073314756 -0.09958144 -0.06814795 -0.0020529355 0.0029869056 0.042232875 -0.09581534
-0.04966043 0.016799081 0.020020992 -0.0408081 -0.030267054 0.06886038 0.0059971414 0.020892944
0.044951774 0.01570464 0.0053083715 -0.043430746 0.01050023 -0.029260423 0.04303233 0.036214404
0.024769846 0.106192045 -0.07420063 0.014194266 -0.044332422 -0.016763708 -0.10093358 0.03338043
-0.0044629104 -0.07987347 0.076972604 0.094083816 -0.075788535 0.017344419 0.021570338 -0.088276155
-0.12746923 0.07635195 -0.072048545 0.0025202953 0.0108523145 -0.05497718 0.06275654 -0.0543841
-0.057982374 0.07797463 -0.053504124 -0.041128587 -0.06422555 -0.05755337 -0.03598518 -0.027053853
0.036597304 0.063864365 -0.041310906 -0.043942522 0.003654768 0.0020371599 -0.07167653 0.04534186
-0.04674526 -0.08540908 0.020453619 0.05960366 -0.026520673 -0.06756248 0.010051872 -0.07895342
-0.049704764 -0.023596447 0.08011121 0.031706464 -0.08988582 -0.07022227 -0.098574735 0.022567946
0.101188906 -0.009187984 -0.04046843 -0.07156583 0.040507983 -0.09211995 -0.065995865 -0.061833594
-0.058926217 -0.033986498 0.055601574 0.045089886 0.06377978 0.0358847 0.048887 -0.052948024
0.009628895 -0.02547014 0.052664403 -0.10001743 -0.079310335 0.05512917 0.07001411 -0.04162129
-0.099755146 0.038215786 0.13181558 0.10202397 0.038528927 0.012196762 0.00984282 0.10225851
0.023497717 0.07211459 -0.05961686 -0.04372809 0.03126879 0.043566555 0.040071655 -0.04781446
0.05514774 -0.045884836 -0.031244213 -0.03919374 -0.08339322 -0.060530204 -0.017335767 -0.089179896
0.08012408 -0.056414444 -0.081226535 -0.010906709 -0.012085725 0.012705744 -0.07615113 -0.004121766
-0.06767205 -0.017342161 -0.059414417 -0.03133964 0.11368561 -0.09964282 -0.032638084 -0.019586314
0.11840637 0.017416773 0.02400731 0.016528396 -0.118841365 0.115008265 0.0734971 0.05380185
00000000: 2262 3abc d8f1 10bd 3f94 21bc be4b 043e
00000010: bf85 203d b21d d03d 145d e3bd c61d b33d
00000020: f48b 5a3d 1ea8 e63d 0f20 3abd 088c 8b3d
00000030: 32df ab3d 81c0 71bd d2c9 ac3d 4716 b63d
00000040: 0aa8 a2bd de2e d7bd 3002 9d3c 4ad3 dabd
00000050: d520 b5bc bd26 1c3e 35e9 643d 094c 393c
00000060: 4378 e7bd 9f37 7fbc ebb6 8b3d 1059 49bd
00000070: fad4 aabd 99d6 823d 703e 64bd e240 e6bd
00000080: 9016 9b3c c9d6 c33b ecd6 583d 8afa 7cbd
00000090: 2592 1fbd 6fe4 c83b 511e 21be 61dc 5d3d
000000a0: 2a99 b0bd 2d82 6cbd ace0 d13d 57da f23b
000000b0: 2f55 51bc 7230 8e3d f929 663c 1dd3 18bd
000000c0: e9e0 18be 2384 23bd c005 be3c e37a 833b
000000d0: daed 1e3d 18fe 803d 8f06 2d3d b0f8 17be
000000e0: e1b3 123e 33b9 52bd 4e29 86bc 1d2a 20be
000000f0: 0e0a 313c 62c7 9d3d 7de8 97bd f729 26bd
00000100: 2cd5 c73c aef8 7a3c cbfe 423d 4023 abbd
00000110: 95e0 5c3e 8a48 80bd 5293 e1bc b1af 8c3d
00000120: ebb3 02be 5e51 1a3d 01d5 923d 8244 923d
00000130: 0715 b33d 8867 433d d65a 083e e464 983d
00000140: 37f0 15bd ab20 a93d ae2a e93c 7171 7e3c
00000150: 09c5 15bd f10a 083d 8118 a73d 3eb9 9c3d
00000160: 7aaa 21bc ee27 933c 09fa 5c3d 1484 723d
00000170: 71f3 d83c d326 71bd de65 58bd d77b afbd
00000180: 39c1 adbd 90c5 873d 1c59 333d 27bf 213e
00000190: 9129 18bc 1edf 36bc e6b1 fabd 0935 eab8
000001a0: b073 563d 0c26 96bd 5bf1 cbbd 2791 8bbd
000001b0: 8b8a 06bb f6bf 433b 61fc 2c3d d53a c4bd
000001c0: bc68 4bbd 3a9e 893c 1003 a43c 6526 27bd
000001d0: 9df2 f7bc ac06 8d3d ab83 c43b ae27 ab3c
000001e0: 5a1f 383d 04a7 803c d9f1 ad3b 70e4 31bd
000001f0: 2809 2c3c 8eb3 efbc ab42 303d 8e55 143d
00000200: 22ea ca3c 377b d93d 80f6 97bd 118f 683c
00000210: ea95 35bd 0b54 89bc 44b6 cebd ebb9 083d
00000220: 9b3d 92bb b494 a3bd d0a3 9d3d 04af c03d
00000230: 0537 9bbd e215 8e3c 47b4 b03c 21ca b4bd
00000240: 4b87 02be 695e 9c3d 308e 93bd 8a2b 253b
00000250: e8cd 313c c02f 61bd 8086 803d ddc1 5ebd
00000260: ed7e 6dbd 2ab1 9f3d 2427 5bbd 7376 28bd
00000270: af88 83bd 15bd 6bbd 3265 13bd 0ba0 ddbc
00000280: 0ee7 153d 52cb 823d a035 29bd 13fd 33bd
00000290: d584 6f3b df81 053b 25cb 92bd 63b8 393d
000002a0: f577 3fbd f5ea aebd 598e a73c f822 743d
000002b0: e241 d9bc 335e 8abd 9bb0 243c 55b2 a1bd
000002c0: 3997 4bbd 564d c1bc 5911 a43d a3de 013d
000002d0: 0f16 b8bd b2d0 8fbd 8de1 c9bd 6ae0 b83c
000002e0: 213c cf3d 3389 16bc 39c2 25bd 1b91 92bd
000002f0: b3eb 253d 62a9 bcbd d728 87bd 3945 7dbd
00000300: 9e5c 71bd 6d35 0bbd 7abe 633d 2cb0 383d
00000310: f99e 823d d6fb 123d bc3d 483d 07e0 58bd
00000320: 83c2 1d3c c1a6 d0bc a1b6 573d f0d5 ccbd
00000330: 756d a2bd 20cf 613d 8f63 8f3d 167b 2abd
00000340: 6d4c ccbd 2888 1c3d aafa 063e f1f1 d03d
00000350: 82d0 1d3d edd4 473c c843 213c e96c d13d
00000360: 497e c03c d0b0 933d cf30 74bd 3a1c 33bd
00000370: b413 003d d872 323d 2d22 243d 18d9 43bd
00000380: 99e2 613d bdf1 3bbd ddf3 ffbc 9d89 20bd
00000390: 11ca aabd 85ee 77bd bd03 8ebc f3a3 b6bd
000003a0: 1818 a43d d512 67bd 195a a6bd 0eb2 32bc
000003b0: 3403 46bc c12b 503c 20f5 9bbd e10f 87bb
000003c0: a597 8abd 2611 8ebc 885c 73bd ff5d 00bd
000003d0: 00d4 e83d 8911 ccbd 83af 05bd 7a73 a0bc
000003e0: 0a7f f23d 9fad 8e3c faaa c43c 8f66 873c
000003f0: 1a63 f3bd 7489 eb3d a685 963d 545f 5c3d

fc2.bias f4 [84]
0.032577705 -0.019915652 -0.14457783 -0.08479518 0.09557756 0.04939286 0.2516194 0.1848481
0.010305956 0.3069872 0.014074268 0.01350555 0.009582691 -0.02168205 -0.05586829 0.06379945
-0.09247599 -0.014894678 -0.03205489 0.097117975 -0.015347204 -0.043135237 -0.19599622 -0.017958494
0.13751654 0.01688307 -0.032078236 -0.0140937 -0.049411997 0.17947066 0.08128926 -0.08077713
0.22192232 -0.008666518 0.073132984 0.07238907 0.08332555 -0.011810996 -0.095530555 -0.08662867
0.20747839 0.23819067 -0.023092838 -0.07352474 -0.004674046 0.26854536 -0.0979341 -0.030266298
-0.064284824 -0.025760878 0.09709414 0.306923 0.21657397 -0.06416929 -0.014761257 0.054243643
0.05753538 0.021985438 0.018531555 0.40051335 0.10072629 0.3386451 0.061757497 0.08507919
-0.07960154 0.32873717 -0.043122947 -0.010342479 0.101360336 0.101747215 -0.04488159 -0.056690387
-0.06711752 0.22746682 0.16718781 -0.060152013 -0.06414582 -0.0695271 0.18189691 0.110350415
0.14473541 0.2554901 -0.14578581 -0.09395845
00000000: 3370 053d 2626 a3bc 360c 14be 18a9 adbd
00000010: 2bbe c33d 2b50 4a3d 42d4 803e d248 3d3e
00000020: 50da 283c 6d2d 9d3e c297 663c 6246 5d3c
00000030: b800 1d3c 8e9e b1bc 26d6 64bd 49a9 823d
00000040: 0d64 bdbd cf08 74bc fd4b 03bd cae5 c63d
00000050: d772 7bbc 93ae 30bd 3cb3 48be b11d 93bc
00000060: 23d1 0c3e 5d4e 8a3c 7864 03bd 43e9 66bc
00000070: 3c64 4abd 28c7 373e fc7a a63d 7b6e a5bd
00000080: 9b3f 633e 03fe 0dbc bfc6 953d b940 943d
00000090: 96a6 aa3d e882 41bc 86a5 c3bd 5f6a b1bd
000000a0: 3775 543e 41e8 733e 312d bdbc 2494 96bd
000000b0: bd28 99bb c77e 893e ac91 c8bd 07f1 f7bc
000000c0: c3a7 83bd 7a08 d3bc 4bd9 c63d 0325 9d3e
000000d0: 91c5 5d3e 306b 83bd 33d9 71bc 952e 5e3d
000000e0: 38aa 6b3d ce1a b43c 7dcf 973c 1610 cd3e
000000f0: 9649 ce3d e462 ad3e 6ef5 7c3d 003e ae3d
00000100: 2206 a3bd 3d50 a83e b0a1 30bd 8073 29bc
00000110: 0296 cf3d d860 d03d c2d5 37bd 2e34 68bd
00000120: e974 89bd 10ed 683e 4833 2b3e f561 76bd
00000130: e25e 83bd 3964 8ebd 2f43 3a3e 66ff e13d
00000140: 8535 143e 99cf 823e e048 15be 4a6d c0bd

fc3.weight f4 [10, 84]
0.08277533 0.03642872 0.07218901 -0.03940342 0.206133 0.19211428 0.20209399 0.05489248
-0.10772192 0.20369062 0.018512338 0.17084442 0.06210274 0.075775534 -0.0965955 0.06642931
-0.075740404 -0.085940056 -0.08012445 0.066897534 -0.0008614024 -0.05315551 -0.027446417 0.021294173
-0.012018972 -0.23164415 0.29828665 -0.0677103 0.07797977 -0.13879311 -0.0065844567 0.019650856
0.12595302 0.01693093 -0.092930384 0.00074966723 -0.12361427 0.1118099 -0.018512847 0.07777449
-0.10429458 0.08345598 -0.05365227 -0.04310853 -0.13146162 0.28405437 0.041704766 -0.014759724
-0.031943895 -0.045385037 0.08658857 -0.0989966 -0.15005048 -0.17381616 0.031234093 0.07991582
0.04264782 -0.07021571 0.09637185 -0.3497426 -0.09740724 -0.33621287 0.07148896 -0.17193815
0.012868899 -0.13054413 0.06006208 -0.021079605 0.30167457 0.15169701 0.047059793 0.0737559
0.1078648 0.2648619 0.12557067 0.2038922 0.09930778 -0.025924776 -0.29836917 -0.13128102
0.019511722 0.036435816 4.30339e-05 -0.010711078 0.4714802 0.097272724 0.30594876 -0.07328617
0.025990548 -0.116040744 -0.24240789 0.055836305 0.015289837 -0.15728836 0.074348584 0.26881522
-0.10063223 -0.01192983 0.042757027 0.076830305 -0.016052 0.046527214 -0.020041516 0.07507156
0.046895683 -0.044015158 0.0679028 0.049271073 0.025933612 0.2845021 -0.022571698 0.2224805
0.05885186 -0.18937248 -0.18243468 0.055323604 0.1465113 -0.01559966 0.2289721 -0.40793577
0.006379508 -0.1242064 0.09145007 0.035237174 -0.04393992 0.1260804 -0.064602904 0.04487096
-0.15494986 -0.1534101 0.052921638 -0.11219614 -0.10951549 -0.04561713 -0.08077045 -0.07890949
-0.09358716 0.22458914 -0.14114146 0.0061651515 -0.07559351 0.08945946 -0.07354274 0.057657957
0.027857771 -0.34702697 -0.026967764 -0.16134542 -0.17995307 -0.099551365 0.101300925 -0.052198242
0.3338687 -0.10901016 0.053169213 0.070851386 -0.04009392 0.16174248 -0.30397466 0.06937069
-0.11260531 0.045397807 -0.022274885 -0.15472876 -0.16794755 -0.03533099 0.12393677 -0.012062249
-0.07888267 0.011130891 -0.07919924 -0.07703253 0.22515915 0.09606505 0.31928036 0.16217345
0.05607722 0.03216471 -0.03146442 -0.19945343 0.029002508 -0.021251991 0.08442969 0.15291125
0.05303576 0.0712026 0.012769915 -0.03660234 -0.17237836 -0.09328526 0.013851095 -0.0056876326
-0.09134169 0.21719104 -0.105774924 -0.14442232 0.08307858 0.05082599 -0.038338438 0.17315078
-0.06570918 -0.08254558 -0.08203422 0.20757182 0.122401066 -0.13402902 0.10367418 -0.011082382
-0.14964749 -0.17115934 0.15030704 0.06725576 0.17705926 0.08608457 0.11947434 -0.08180188
0.048006278 -0.021576492 -0.20715286 -0.004914561 -0.06367909 -0.13724284 -0.10528964 0.12785412
0.03181082 -0.035870586 0.055648066 0.21471305 0.2108841 0.11019575 -0.09969282 -0.041475832
0.08109125 0.047009055 0.066850826 -0.10827547 -0.029446222 0.11305754 -0.10162109 -0.010423526
0.06412322 -0.09078537 0.33709845 -0.16478592 0.25176275 0.05142563 -0.087031856 -0.122082695
0.06790006 0.08645899 -0.012393975 -0.106027685 -0.08882338 -0.008649273 -0.2341144 0.14242354
00000000: 1d86 a93d 4836 153d d5d7 933d 7b65 21bd
00000010: 8714 533e 9bb9 443e baf1 4e3e f0d6 603d
00000020: 4f9d dcbd 4694 503e 30a7 973c d7f1 2e3e
00000030: 715f 7e3d 3430 9b3d ddd3 c5bd 170c 883d
00000040: c91d 9bbd 5701 b0bd 4a18 a4bd 9301 893d
00000050: bdcf 61ba 98b9 59bd 4fd7 e0bc 1e71 ae3c
00000060: 39eb 44bc 2034 6dbe 07b9 983e b3ab 8abd
00000070: dcb3 9f3d c81f 0ebe 6dc2 d7bb d5fa a03c
00000080: d4f9 003e bcb2 8a3c 4952 bebd 5185 443a
00000090: 7a29 fdbd 97fc e43d 41a8 97bc 3b48 9f3d
000000a0: 6698 d5bd f8ea aa3d 7cc2 5bbd 9292 30bd
000000b0: e09d 06be 936f 913e 9ed2 2a3d c5d2 71bc
000000c0: 9ad7 02bd a9e5 39bd 5955 b13d bbbe cabd
000000d0: d5a6 19be ddfc 31be a4de ff3c e8aa a33d
000000e0: 7baf 2e3d 41cd 8fbd 9b5e c53d 7611 b3be
000000f0: 727d c7bd 1824 acbe ce68 923d 8e10 30be
00000100: 13d8 523c 5cad 05be a803 763d 23af acbc
00000110: 1775 9a3e 7656 1b3e c5c1 403d 550d 973d
00000120: 38e8 dc3d fb9b 873e 9995 003e 1ec9 503e
00000130: e161 cb3d 3260 d4bc d8c3 98be 886e 06be
00000140: 0cd7 9f3c b93d 153d 4c7f 3438 847d 2fbc
00000150: da65 f13e ec36 c73d 51a5 9c3e 0f17 96bd
00000160: 21ea d43c c5a6 edbd c639 78be 9cb4 643d
00000170: 3982 7a3c 3310 21be 1244 983d 26a2 893e
00000180: 4518 cebd 5575 43bc fe21 2f3d 3559 9d3d
00000190: 7c7f 83bc 5293 3e3d 1b2e a4bc 1ebf 993d
000001a0: b015 403d 3d49 34bd a010 8b3d 77d0 493d
000001b0: ba72 d43c 42aa 913e 48e8 b8bc eed1 633e
000001c0: a60e 713d dcea 41be 28d0 3abe 019b 623d
000001d0: 0f07 163e b795 7fbc aa77 6a3e f5dc d0be
000001e0: 310b d13b ed5f febd 2d4a bb3d db54 103d
000001f0: 58fa 33bd 381b 013e 874e 84bd 9dca 373d
00000200: 2dab 1ebe 8a17 1dbe 5cc4 583d 17c7 e5bd
00000210: a849 e0bd 07d9 3abd fa6a a5bd 4c9b a1bd
00000220: a0aa bfbd b2fa 653e 6387 10be 0a05 ca3b
00000230: c5d0 9abd 8536 b73d 939d 96bd c02a 6c3d
00000240: fb35 e43c 85ad b1be 80eb dcbc bc37 25be
00000250: 9e45 38be 96e1 cbbd dc76 cf3d d3cd 55bd
00000260: d7f0 aa3e b840 dfbd f6c7 593d 881a 913d
00000270: 8639 24bd d29f 253e 91a2 9bbe 3812 8e3d
00000280: 9d9d e6bd 0df3 393d d279 b6bc 3771 1ebe
00000290: 71fa 2bbe 3ab7 10bd 90d2 fd3d bda0 45bc
000002a0: 3d8d a1bd 575e 363c 3633 a2bd 3bc3 9dbd
000002b0: 1f90 663e c1bd c43d b778 a33e cc10 263e
000002c0: 3ab1 653d 25bf 033d d6e0 00bd 853d 4cbe
000002d0: ab96 ed3c a818 aebc 79e9 ac3d c494 1c3e
000002e0: 063c 593d abd2 913d e838 513c 56ec 15bd
000002f0: f483 30be 580c bfbd b4ef 623c 525f babb
00000300: 5a11 bbbd 5467 5e3e 86a0 d8bd 72e3 13be
00000310: 1a25 aa3d ea2e 503d c408 1dbd 704e 313e
00000320: 8992 86bd a80d a9bd 8f01 a8bd b58d 543e
00000330: 69ad fa3d e73e 09be 2153 d43d e192 35bc
00000340: 313d 19be 6544 2fbe 17ea 193e 63bd 893d
00000350: 064f 353e 1b4d b03d f6ae f43d be87 a7bd
00000360: 3ba2 443d 2fc1 b0bc e11f 54be 530a a1bb
00000370: 2f6a 82bd 6389 0cbe 18a2 d7bd 31ec 023e
00000380: 104c 023d 09ed 12bd 3aef 633d bddd 5b3e
00000390: 00f2 573e 4fae e13d c02b ccbd 90e2 29bd
000003a0: 2b13 a63d 918c 403d 16e9 883d 88bf ddbd
000003b0: 3439 f1bc b68a e73d b81e d0bd 70c7 2abc
000003c0: 0953 833d aeed b9bd 2b98 ac3e a4bd 28be
000003d0: 0ce7 803e aea3 523d c23d b2bd 7e06 fabd
000003e0: 300f 8b3d 6911 b13d 1910 4bbc 0b25 d9bd
000003f0: 08e9 b5bd aeb5 0dbc afbb 6fbe 7ad7 113e

fc3.bias f4 [10]
-0.18921125 -0.35008413 0.081462696 0.21708064 0.58810055 -0.2377276 0.023147564 -0.26553628
0.4556849 -0.12276661
00000000: 98c0 41be 3a3e b3be ead5 a63d 634a 5e3e
00000010: c28d 163f dd6e 73be f69f bd3c 5ff4 87be
00000020: 884f e93e 0f6d fbbd
